param/net_param/actor_net.pkl (torch, 138177 bytes, 6 tensors)

weight f4 [128, 115]
00000000: a7bd 93bd 7ee9 bd3b bdcf 74bd 70d2 94bd
00000010: 6cf2 ccbd a45d 72bc d318 fb3c dac7 ebbc
00000020: 2132 113d de31 3cbc 1275 313d 6701 5d3d
00000030: 2e66 6f3d a582 093d 0f0b caba 2933 9e3d
00000040: 6c37 87bd 8cfb 86bd 4e46 6c3d cc73 6c3d
00000050: 308a cc3c 8c85 c53c 8799 b43d cfb2 7f3d
00000060: 0d28 87bc 1159 873b 965f af3d bec8 92bd
00000070: e7ee e3bc e096 81ba ed13 543d 97c8 793c
00000080: 0f38 a8bb 0eae c53d 5833 bd3d 91c2 aabc
00000090: 7fb9 10bd 2250 913d ab8f 57bd 15cd 08bd
000000a0: 5167 6cbd 2fd4 76bd 7015 83bd 9e57 b0bd
000000b0: 6b98 8dbc e9fb 6cbd 414a e33c 52f8 9b3c
000000c0: 6859 b13d 1831 8bbd 4478 973d d394 093c
000000d0: 6395 7ebd 9173 1fbd 77c5 7dbc ddee 32bd
000000e0: bf38 213d 1f5a bcbb 158e 633b bd5c 07bd
000000f0: b6f7 adbd 81c6 ebbb 6cd9 88bd c9c9 913c
00000100: bdfd 6a3d 706f 84bd 168a 9a3d 74f1 b63d
00000110: 1fc2 2c3c 96ad 8b3d f9d3 1b3d a803 823c
00000120: a591 a7bc 5e4e ab3d 3811 a23d 0235 8ebc
00000130: 36b2 71bd 4a07 be3c 2a22 8e3d 4876 f13c
00000140: 6520 04bd 31df f9bc b196 51bd 8aba da3c
00000150: 9add b13d 5533 f53b 85b9 57bd 1d55 423d
00000160: c976 493c 52f5 b53d ce4f 4e3c 38c6 c1bd
00000170: b177 9fbd f170 98bc 303c 0abd f3b5 a9bd
00000180: 9435 003c 3ce0 8bbd 567c 4fbd 8a76 703c
00000190: c82e 873c d944 99bd 301a a8bd b029 8dbc
000001a0: f1db 4abd 6de9 a5bd ea20 d8bc 893c 403d
000001b0: 705e b1bd e9e2 863c 07c2 f5bc f8ca 28bd
000001c0: 23ea b1bd 10dc 273a b9e6 babd 5771 c2bc
000001d0: 2244 4fbc 4870 203d f002 9f3c 3764 8abc
000001e0: 8de0 a5bd d4a2 7fbd ce52 acbd 76b3 2abd
000001f0: 4eda 23bc 51e2 4d3d f6ce 76bd 27a7 933d
00000200: 918b 42bd 0739 6d3d 6c98 37bd 2c4a 70bd
00000210: 5d76 56bd 8d94 623c fb4f 5ebd abc3 ad3d
00000220: de28 383d 91fc 933d 2f14 ab3d b3f4 1c3d
00000230: 17dc 1abc 4777 b23d 104c 88bd e33b 993d
00000240: 9e95 643d b75e 9ebd 0c81 7a3d 3d93 5b3d
00000250: 4497 a7bd 1faf 0cbd 1c3e 8e3d 0a0f 83bd
00000260: 2554 80bd 5d4b 123d fd38 4c3d bc97 813d
00000270: df40 21b9 22b0 93bd d576 0fbd 797a 08bd
00000280: d34c 84bd a90e 283d acb3 b2bd 339f 9f3c
00000290: 35f9 d93c f1cd 8d3d 1240 503d 3c84 153d
000002a0: 7266 953d 0b1d 753d 36f9 b1bd ca8b a3bd
000002b0: e675 3f3c 2376 cf3c 91e6 4b3d 444f 40bd
000002c0: c284 103b 9d61 a93d 7dda 80bd f686 01bd
000002d0: 995b 8a3d f297 0fbc 4a36 8abd 14cf 943d
000002e0: 85f6 ae3d e797 bd3d 9e81 88bb 3595 20bd
000002f0: 8a97 26bd 0107 f73c c53d 1bbd 6e3f abbc
00000300: 60e8 373d a756 1fbc bb68 b03d 6126 75bd
00000310: 20c2 9a3d c0eb 853d 7045 a13d 2cf7 b03d
00000320: d6d1 bb3d 54ef 19bc 4d2b 7a3d bc8b 8d3d
00000330: 7fba 503d 1706 07ba 6f67 99bd 7c17 443c
00000340: dbeb 8c3d d742 e23c 8cc9 50bd b769 8dbd
00000350: 5ad1 92bd 58fa 5dbd 3b51 a2bd f95a 90bd
00000360: 4736 adbd c073 96bd 3db5 bebd bfa8 a23c
00000370: 3283 a13d fb96 9b3d b109 8a3d 835b 52bd
00000380: 2374 a03c d613 a0bc 1920 b63d e162 443b
00000390: e372 a53d eb64 30bb 2c8c 9b3d 0bd2 683d
000003a0: 076f dd3c 782a be3c 31d3 8b3d ee07 623c
000003b0: 76df b63c 2b6b 8abd 4b18 7a3d fa23 8c3d
000003c0: 9c91 b43d b766 25bd 6186 be3d 88c1 b93d
000003d0: f7c7 933d b0dc 8bbd ad51 bdbd dcfd 07bd
000003e0: 5149 a0bd 9fb1 033d c19e 4b3d 8d7e 9b3d
000003f0: 104f 01bd 5d84 e7bc 1ea8 3f3d 6710 493d
-0.07213908 0.0057956567 -0.059768427 -0.072667 -0.10007176 -0.0147928335 0.030651486 -0.02878182
0.035448197 -0.011486499 0.043324538 0.053956416 0.058447056 0.033571858 -0.0015414673 0.07724602
-0.06602368 -0.065909475 0.057684235 0.05772762 0.024968237 0.024111532 0.088183455 0.062426385
-0.01649859 0.0041304906 0.085631534 -0.07167195 -0.027823878 -0.0009886883 0.051776815 0.015245578
-0.005133636 0.09652339 0.09238309 -0.02084473 -0.035333153 0.07095362 -0.052627247 -0.033398706
-0.057715718 -0.060260948 -0.06400573 -0.08610462 -0.017284593 -0.057857428 0.027745368 0.019039307
0.08659631 -0.06796473 0.07395986 0.008397299 -0.062154185 -0.038928572 -0.015488974 -0.04368483
0.039360758 -0.005748048 0.0034722139 -0.033047426 -0.08494513 -0.0071952944 -0.06682095 0.017796414
0.05737089 -0.064665675 0.07545869 0.08932772 0.010544329 0.06820218 0.03804395 0.015870884
-0.02045519 0.08364557 0.079134405 -0.01735926 -0.059007846 0.023196835 0.0694011 0.029475346
-0.032257456 -0.030501934 -0.0511691 0.026700277 0.08684845 0.007482926 -0.05266716 0.04744445
0.012296387 0.08884682 0.012592269 -0.09461635 -0.07786501 -0.018608542 -0.033748806 -0.08286657
0.007825274 -0.06829879 -0.050655685 0.014676699 0.0165018 -0.07483835 -0.0820812 -0.017231792
-0.04952616 -0.08101163 -0.026382882 0.04693273 -0.08660591 0.016465621 -0.029999746 -0.04120919
-0.08687236 0.00064033363 -0.09126038 -0.023735685 -0.0126505215 0.03916958 0.01941058 -0.01689349
-0.0809947 -0.062411144 -0.08414231 -0.041675054 -0.010000778 0.05026466 -0.060255967 0.07209616
-0.047496382 0.057915714 -0.044823095 -0.058664486 -0.052358974 0.013829363 -0.054275494 0.08484586
0.04496085 0.072259076 0.08353459 0.0383193 -0.009451888 0.087141566 -0.06655133 0.074821256
0.05580675 -0.07732909 0.061158225 0.053607214 -0.081831485 -0.034346696 0.0694544 -0.06399353
-0.06266049 0.035716403 0.049859036 0.06327769 -0.00015378323 -0.07211329 -0.035025436 -0.033319924
-0.064599656 0.041029606 -0.08725676 0.019485092 0.026608089 0.06924046 0.050842352 0.03650306
0.072949305 0.05984215 -0.08690111 -0.07985647 0.011685824 0.025324887 0.049780432 -0.046950594
0.0022051786 0.082705714 -0.06291673 -0.03162285 0.06755752 -0.008764254 -0.06748636 0.072660595
0.085431136 0.09257489 -0.004165842 -0.039204795 -0.040671863 0.030154707 -0.037900705 -0.02090427
0.044899344 -0.009725249 0.08613726 -0.059851054 0.07556558 0.06539106 0.07874572 0.08640894
0.091708824 -0.009395439 0.06107645 0.06911418 0.050959107 -0.0005150749 -0.074904315 0.01196849
0.06880923 0.027619762 -0.05097346 -0.06904929 -0.07168837 -0.054193825 -0.0792565 -0.07048602
-0.08457618 -0.07346296 -0.09311912 0.019855855 0.07886352 0.075971566 0.0674013 -0.051356804
0.019586628 -0.019540709 0.08892841 0.0029966163 0.080785535 -0.002691562 0.07595095 0.056840938
0.027030481 0.02321361 0.06827391 0.013795836 0.022323351 -0.06758722 0.061058324 0.068427995
0.08816835 -0.04038116 0.093029745 0.09070116 0.07215875 -0.06829202 -0.09244094 -0.033201084
-0.07826484 0.032151815 0.049711946 0.07592497 -0.03156954 -0.028261358 0.04679119 0.049087908

bias f4 [128]
00000000: 780c 72bd bd5c b8bd 01d8 2e3c 0dc4 84bc
00000010: 2bb1 b3bc 9ba2 a73d 2966 42bd 55f0 35bd
00000020: 0e13 36bc 9e73 b03d 53a1 a63d ed74 9fbd
00000030: e9cb 1dbd 4740 f8bc 888c 453d 4af3 4dbd
00000040: 0656 6ebc a999 88bc ef66 753b 57bc a33c
00000050: 1c69 d53d 55aa 373d 4940 463d 30f1 8dbd
00000060: 1417 ec3d 2809 6abd 818d 86bd 06a5 63bd
00000070: a8aa 73bd 8d90 933c 9c4a 803c bfcc 203d
00000080: fa9c b5bd aabb 373d 7c8d 923d e281 8d3c
00000090: 5495 d7bc f4b8 bd3d ff7c 9d3d 18f6 f83c
000000a0: 15c7 91bd 2730 083d 1f32 4f3d fc1f 95bd
000000b0: 1b9c b43d fb71 9cbc e955 83bd 73f3 18bb
000000c0: 0da3 5a3d 7ead 143d c58d 963d 864c 6f3d
000000d0: 2bdf 243b b997 9cbd 062a 96bd 6dae fbbc
000000e0: 3bb0 d13d d93e d83d 4c10 243d 837a e33d
000000f0: 3274 623d 4a7d cabc e622 0bbd 7b23 9bbd
00000100: 8b89 6fbb 63e0 8f3c 8d2a ccbc 31db 82ba
00000110: 0db6 cebc c6db a6bc 4376 373d 3e1e 813c
00000120: 977c f5bc 5567 99bd eda3 493d 089e 17bd
00000130: 9a41 40bd ae5b 95bd c12e a13d 08f3 8e3c
00000140: 01e7 1ebc 56ee ba3d b34d 9fbc 7970 943d
00000150: c792 ef3b 6c6c a8bd 88ea f8bc b77d 573d
00000160: dc7e 6dbd ce7c 233d 70fb 85bd a81e b03c
00000170: 4a2e 233c f2e6 893c ec3b 68bd 9eea c4bc
00000180: 5f0b e23d ab96 663d 5cf0 303b 33be 243d
00000190: c033 a23d deb2 123d 2ca2 93bd 3c34 303d
000001a0: f3bd a53d 48d7 21bd 7487 1f3d ef0b 1f3d
000001b0: a571 7bbd e238 08bc 663e 653c 8757 883d
000001c0: 93f8 f93b 7def bcbd 0c88 89bd 22dd 523d
000001d0: a822 803b 0a4c 40bd 95d6 9ebd 3a7d 0e39
000001e0: 11f0 b53c e7ca 233d a3b3 0fbd c907 39bc
000001f0: c8dc 0a3d aa79 503d 1b62 6a3d 936f 3ebd
-0.059093922 -0.090020634 0.0106716165 -0.016206766 -0.021935066 0.081853114 -0.04746071 -0.04441865
-0.011112941 0.08615802 0.08136239 -0.07785974 -0.038524542 -0.030304087 0.048229724 -0.050280847
-0.014546877 -0.016674833 0.0037445386 0.019987268 0.10420439 0.044840176 0.04840115 -0.069307685
0.11527839 -0.05713764 -0.065699585 -0.0555773 -0.059488922 0.018013263 0.015660577 0.03925776
-0.088678315 0.044856705 0.07155892 0.017273847 -0.026316322 0.09263793 0.07689857 0.030390784
-0.0711805 0.033249047 0.05058491 -0.07281491 0.08818837 -0.019097319 -0.064128704 -0.0023338466
0.053378154 0.036298268 0.07351259 0.058422588 0.0025157433 -0.07646126 -0.07332234 -0.030722821
0.102386914 0.10558862 0.040054604 0.11107352 0.055286594 -0.024717946 -0.03396883 -0.07575127
-0.0036550488 0.01756305 -0.024922634 -0.0009983537 -0.025233293 -0.020368468 0.044790518 0.01576149
-0.029966636 -0.07490412 0.049228597 -0.037015945 -0.046937563 -0.07292877 0.07870246 0.01744987
-0.00969863 0.0912749 -0.01944623 0.07248015 0.0073111984 -0.08223805 -0.03038527 0.052610125
-0.05798231 0.039913945 -0.065420985 0.021498993 0.009959767 0.016833756 -0.05669777 -0.024037655
0.11037325 0.056296032 0.0026998734 0.04022045 0.07920027 0.035815112 -0.07208666 0.043018565
0.080928706 -0.03951195 0.038947538 0.03882974 -0.061387677 -0.008314343 0.013991928 0.066573195
0.0076285093 -0.09225366 -0.06715402 0.05148042 0.0039103813 -0.046947517 -0.07755772 0.00013588826
0.0222092 0.039988425 -0.035083424 -0.01129336 0.03390196 0.050897278 0.057222467 -0.046493124

weight f4 [128, 128]
00000000: dd05 8c3d db7d e93b 5455 023c 6b5e f9bb
00000010: db17 c6bc 2285 96bc 7c7c 9cbc d29d 863c
00000020: 6a25 1a3d 116f e43c 43fe 41bd 0566 fcbc
00000030: 0fa6 393b 27dc 9dbd 6246 243d 2883 0439
00000040: 29a8 aebd 0003 a3bd 5333 91bd 444f 923c
00000050: 8e31 f3bc 98c4 a13b a3cd 3bbd 9410 80bd
00000060: e831 ad3d bcf5 47bd f623 c0bc 10e0 05bd
00000070: 0826 8fbc 79cc 5abb dab2 a23d 8fcf ac3d
00000080: 39b9 0bbd 08ca a6bd b303 76bd 4507 3a3d
00000090: 66f0 083d 5b0e afbd 96f7 bc3b 61c3 f53c
000000a0: 4c83 8ebd ff4f 0ebd 6e8e ab3d e185 d13c
000000b0: 4dce 7c3b 946c 7c3c 1c76 913d d931 403c
000000c0: 596f 303b 3b31 22bd e39f 703b e2b5 30bc
000000d0: ded8 f13b ec87 933d b6fa 8bbd 1c13 5ebd
000000e0: b7ec 67bd e480 b5bd 6c23 5c3d 5f04 02bd
000000f0: 233b 893c b254 5bbc 043c 8bbd 900d 103d
00000100: 1756 073d 17e6 893d 2146 80bd 8e9d 60bd
00000110: c91c 973d 6db7 08bd df6d 493d 658b 5ebd
00000120: 29ea a93d 88a6 333c 1594 8dbd e4ec 833d
00000130: 46ee 253d 5b39 1b3c ca02 cf3c 463a 063d
00000140: 017e 2b3c 4b4a a83d 64cc 8cbd 6ee6 72bc
00000150: 22ed 343d 0ea0 9a3d a3c1 48bd 2e81 553d
00000160: b8cb a8bd 12d1 8a3d 7bd7 83bd f585 76bd
00000170: dc25 a93d fa0d 9c3d bfdb a4bc a916 813d
00000180: 855c 993d 5b46 91bd d0b9 bb3d 477d 933d
00000190: a09b 95bb 70f0 81bd 7385 aa3d 396e 273d
000001a0: 03fb 59bd 7f9c 483c ea5a e33b 4004 9e3d
000001b0: 8dd0 a03d 6bfe 7abd 80fb e1bb 1b33 293d
000001c0: 90ce 233c e5d4 a93d 0ba4 a3bd 3cf3 febb
000001d0: a473 9e3d 9626 9c3d 0136 2ebd 95a5 88bd
000001e0: f996 513d ace4 723d e764 483d 7494 3fbd
000001f0: b157 b53c e293 193d 4543 8f3d db24 97bd
00000200: b2ae a53d 292f 063d 2af6 7a3d 6a51 98bd
00000210: 5afd 033d bfbc 37bd 383d 17bc 2d2e ad3d
00000220: 730d b33c 33a2 353d a37b ae3d a93d af3d
00000230: aa31 e1bc f2b7 1e3d e443 d23c 9792 d6bc
00000240: 2a1d ae3d 6762 73bd 12c8 2fbd eb19 5bbc
00000250: c523 003a 0600 b5bd 9458 b3bd 45ea 89bd
00000260: 4222 41bd ab5c 88bd 33e2 493d d94b 0dbd
00000270: 016c 763d fd3c 1c3d f36b 99bd 68bb 81bb
00000280: c5bd 54bd 7dc9 e23c 72e2 823c f86d b5bd
00000290: 2414 d83c 7be2 5ebd 3673 66bd 00d6 91bd
000002a0: 9677 6f3d 412f 20bd b0cf 6f3d c307 a63d
000002b0: d10d 893d 81b9 b63c 7288 1f3d 9f7e 443d
000002c0: 4c59 e5bb 8648 723d f11d b03d 753d 803a
000002d0: 3fe7 8bbd 659c fe3c 0c72 b1bd 49ec a2bd
000002e0: 0725 533c d3dc 54bc 9809 9f3d c024 8fbd
000002f0: 542e 783d 97dc 6f3d fdba 883d a49b 763d
00000300: 9f04 cfbc 8116 0e3d ebe6 a13d 4af8 693d
00000310: ace7 14bc 8018 a73c 0495 f83c 5d81 eabb
00000320: a7e2 02bc 7a00 a63d 42f7 af3d 2301 3f3c
00000330: b857 cdbc 9264 963d e805 443d 31c9 a0bd
00000340: 8f4d 3c3d 081a 083d b42f ad3d 775f e5bc
00000350: 7786 b4bd e854 e2bc fe93 a9bd 4644 7bbd
00000360: b7f1 91bd 419a 933d 37e5 5dbd 2454 a83d
00000370: c64c 36bd 0a41 a4bd 5295 ad3c 6a6d ac3d
00000380: 42eb 3fbc fc36 873d 2f16 af3d e06c 60bc
00000390: fdef 893d fdaa 9f3d 447c a73c e434 a63c
000003a0: 78ad 2c3d 1a99 483d f96b 8abc 226d 4bbd
000003b0: de57 b63c 2c9a 393d 50cf a0bc 7f6f 91bc
000003c0: 8d96 d33b eed8 69bd 4eb5 29bc 3af9 b5bd
000003d0: ac43 78bd 49c4 31bc 9557 863d 71c0 9abd
000003e0: c8cb a5bc de56 a23d 829c b63a 40b0 613d
000003f0: a918 8d3d 3aeb 293d ca2d 13bd 6c44 eabc
0.06837056 0.007125599 0.007954914 -0.0076101325 -0.024181297 -0.01837403 -0.019102328 0.016432676
0.037633337 0.027884992 -0.047361623 -0.030810365 0.0028327738 -0.07708006 0.040106185 0.0001263736
-0.08528168 -0.079595566 -0.070898674 0.017860062 -0.029686715 0.004936766 -0.045850407 -0.06253162
0.084567845 -0.048818335 -0.023454648 -0.032684386 -0.01747419 -0.0033386035 0.079442695 0.08438026
-0.03411219 -0.08144003 -0.06006212 0.04541709 0.033432387 -0.0854766 0.005766819 0.03000039
-0.06958637 -0.03474426 0.08376776 0.025576534 0.0038575113 0.015406746 0.07102606 0.011730635
0.0026921837 -0.03959773 0.0036716394 -0.010785552 0.007380589 0.072036594 -0.06834929 -0.054217443
-0.056622233 -0.088624746 0.05374472 -0.03174245 0.016751831 -0.013386892 -0.067985564 0.035169184
0.033041086 0.06733339 -0.06263376 -0.054837756 0.07378537 -0.033378053 0.049177047 -0.054332156
0.08296616 0.010964997 -0.0691301 0.06441668 0.04051044 0.009474124 0.025269885 0.032770418
0.010467053 0.08217295 -0.06874922 -0.0148254465 0.04417146 0.07550059 -0.04901279 0.05212515
-0.08241981 0.06778158 -0.06437584 -0.060186345 0.08259174 0.07619853 -0.020124314 0.0630315
0.0748835 -0.07093497 0.091663 0.07201629 -0.004565671 -0.06344688 0.08326235 0.0408766
-0.0532179 0.012244343 0.006938328 0.077156544 0.07852278 -0.061277788 -0.006896436 0.041308504
0.009997979 0.082925595 -0.07990273 -0.0077804606 0.077369004 0.07624547 -0.04253197 -0.06672207
0.05116937 0.05930011 0.048924353 -0.046772435 0.022136541 0.037494548 0.069952525 -0.073800765
0.08089961 0.03275982 0.061269917 -0.074374035 0.032224037 -0.044857737 -0.009230904 0.08456073
0.021856999 0.04434414 0.085196756 0.085566826 -0.027489502 0.038749643 0.025667138 -0.026192946
0.08501656 -0.059420016 -0.04291541 -0.013372879 0.00048881426 -0.08837895 -0.08757129 -0.067341365
-0.04715181 -0.066583 0.049287986 -0.034496162 0.060161594 0.0381441 -0.07491293 -0.003959108
-0.05193879 0.027683968 0.015977118 -0.088588655 0.026376791 -0.054415207 -0.056262217 -0.071208954
0.058463655 -0.039107565 0.058547676 0.08106949 0.066920884 0.022305252 0.038948484 0.047972318
-0.0069991704 0.059151195 0.08599461 0.0009783941 -0.06831216 0.031080434 -0.08664331 -0.07955224
0.012887246 -0.012992102 0.07765502 -0.069894314 0.060591057 0.05855998 0.0667629 0.060207024
-0.025270758 0.03468943 0.07905372 0.057121553 -0.009088438 0.020397425 0.030344494 -0.0071565346
-0.007988608 0.0810556 0.085920826 0.011657986 -0.025066242 0.07343401 0.047857195 -0.07850874
0.045972403 0.03322795 0.08456364 -0.027999623 -0.0881471 -0.027628377 -0.082801804 -0.061344407
-0.071261816 0.07207156 -0.054173674 0.082191736 -0.04450681 -0.08020218 0.021189366 0.084193066
-0.011713805 0.06602284 0.08549153 -0.013697833 0.06735227 0.07796285 0.020444997 0.020288892
0.04215762 0.048974134 -0.016897188 -0.049664624 0.022258695 0.045313045 -0.019630104 -0.01775336
0.006457156 -0.057091646 -0.010358168 -0.08885427 -0.060611412 -0.010850021 0.06559674 -0.075562365
-0.020238772 0.07926725 0.0013932141 0.055099726 0.06889469 0.041484095 -0.03593234 -0.02859708

bias f4 [128]
00000000: 73c0 a9bd 712b 8d3d b6bb aabd 7fdc 333d
00000010: 07eb d83d 0c9b 87bd 56c6 a1bd 05f6 87bd
00000020: 0b2a 8c3d 74fc 323d 60de 61bc 8d09 b03d
00000030: 1dee e0bc f59b 853d 0de5 91bd c867 8b3d
00000040: 339e d13c 1db6 993d c254 043d ca34 2abd
00000050: 0d42 783d 57e7 b8bc 7c77 8bbd 889d 743d
00000060: baf6 aabb 883a 603c 39a9 13bd bb35 383d
00000070: fa30 abbc 4bcf a4bc 1444 70bd 4127 80bd
00000080: bea6 753d b841 6bbd 0606 1e3c b75d 9b3d
00000090: 5bcd fcbb 0f3f 0b3c 23f5 8ebc daa8 efbc
000000a0: ee6a b0bd 0b19 b1bd 30ce c13d 0877 b2bd
000000b0: 52d2 a039 d8ee a6bd daa9 d03c 55c2 29bd
000000c0: e3f4 5cbd 22de b5bd 287f 46bd dd7f 3b3d
000000d0: 126f 203c 07d2 5e3d b288 37bc ee94 453c
000000e0: 8e17 5fbd 78d9 1c3d 406a 693d e8c3 803d
000000f0: ec00 153d ab40 6cbd adf7 5ebd b591 a33d
00000100: 0a02 1abd 3e3a 0bbd 3a14 603d 428e 8a3d
00000110: f102 ae3b ecdf 11bd d684 85bc a636 7dbb
00000120: ec94 93bd b380 3c3d c7e8 33bd c492 d0bc
00000130: c600 f93c a385 ea3c 0106 49bd e133 bfbc
00000140: 5c25 c7bc c3ea 263c 44a9 ebbc 9295 aa3d
00000150: 3f14 2c3d 6ecd 513d 4a82 313d 05a6 893d
00000160: 7201 833c 83e9 a33d 5c1d 063d 256b 10bc
00000170: 4741 abbd 28d2 23bd 5ffd 443d 6da7 2f3d
00000180: ffc2 7abc f407 0abc 2a54 f2b8 937e 9b3a
00000190: 40c0 46bd 097c 1bbd 6499 94bd da6d 333c
000001a0: e14b 3a3d 737d a2bd 09c0 0b3c c0b8 6b3d
000001b0: f267 9ebd dc71 143d 75d9 023d 252b 073d
000001c0: a62d b9bd b3c9 91bd 3cdd 74bc 1ad5 acbd
000001d0: 2bd3 13bd 7ec3 dc3c 5a79 d33d 5964 163c
000001e0: 1386 8ebd f3a7 42bd e2e9 a53c 4c2d 5d3d
000001f0: bc53 aebd b878 61bd f6b8 7b3d 25d6 f83c
-0.0828866 0.068930514 -0.08336584 0.043911453 0.10591703 -0.0662137 -0.07899158 -0.066387214
0.068439566 0.04369779 -0.0137859285 0.08595572 -0.027457291 0.06523887 -0.07123766 0.06806904
0.02558813 0.075054385 0.032307394 -0.04155425 0.060609866 -0.022571249 -0.06809899 0.059720546
-0.0052174004 0.01368583 -0.036050055 0.044973116 -0.020897377 -0.020118376 -0.058658674 -0.06257487
0.05997347 -0.05743572 0.009644991 0.07586234 -0.00771491 0.008498921 -0.017450875 -0.02925532
-0.08614145 -0.08647355 0.09463155 -0.0871411 0.0003067428 -0.081510246 0.025471617 -0.041445095
-0.05394448 -0.08880259 -0.04846111 0.045776237 0.009792106 0.054399516 -0.011202024 0.012059433
-0.054465823 0.03829333 0.056986094 0.06287366 0.036377832 -0.05767886 -0.05443542 0.07986776
-0.0375996 -0.03399109 0.05470679 0.06765415 0.0053104092 -0.03561394 -0.016298693 -0.003863731
-0.07206139 0.046021175 -0.043923166 -0.025460608 0.030395877 0.028628176 -0.04907799 -0.023340167
-0.024309807 0.0101878075 -0.028767236 0.083293095 0.042011496 0.051221304 0.043337144 0.06721119
0.0159919 0.08003523 0.032742843 -0.008814608 -0.0836206 -0.039995342 0.048093196 0.04288428
-0.01530528 -0.008424748 -0.00011555136 0.0011863284 -0.048523188 -0.037960086 -0.072558194 0.010951484
0.04548252 -0.07934084 0.0085296715 0.05754924 -0.0773467 0.036241397 0.031945664 0.03300013
-0.0904191 -0.07118549 -0.0149453245 -0.084390834 -0.036090057 0.026948687 0.1032588 0.009179198
-0.069591664 -0.04752345 0.020253126 0.053998277 -0.08512065 -0.055046767 0.06145569 0.03037555

weight f4 [19, 128]
00000000: 8e53 aebd 31b9 0d3d 35d7 c5bc b830 22bd
00000010: acd7 3bbd 9fba 5b3d 02d9 193d f4d2 66bc
00000020: dc8b 333c 1a38 aabd f9ec 02bd 46f0 0b3d
00000030: 25fe 5e3b 2fd7 8f3d ef8e 94bc 5d27 28bd
00000040: 45fe 96bd 0a65 203c d033 233c 8a25 b43d
00000050: b5c8 c9bc 22b0 89bd 11f4 36bc dbab 7f3d
00000060: a323 93bd 89d8 70bd 926d 133d a265 9cbd
00000070: 3068 1c3d 8f6b 95bd 0346 06bc 31ea ae3d
00000080: 574c 86bd 22aa e0bb 3131 96bd 280b ad3d
00000090: 163a 843c ce36 723d f22c c53c 5d1f 85bc
000000a0: 8a7a cfbb 1249 6dbd 4299 e8bc 6230 91bd
000000b0: 9695 ed3b 4e93 9bbd f1b2 0a3c 87ea a83d
000000c0: 68b5 493d 92e6 b53d 65ad e8bc d4a0 6d3d
000000d0: 11fe 1f3d 06f2 653d 9c31 883d 1d7f a8bd
000000e0: 2866 833c b193 69bd ac87 433d c02a a03c
000000f0: 839e a6bd 37ac 8fbd 4edf 6c3c ad91 a43c
00000100: 4405 253d 88b6 5d3c 90ff dc3b 25c7 d8bb
00000110: e647 7ebd 8b33 a53d 7d90 86bc ce4e 933d
00000120: 027f 86bc 35aa 97bd f04d 5f3d 4f1a 8c3d
00000130: 1d00 253b 8df1 c7bc b0f8 7d3d f0df 2bbd
00000140: 009f 13bd cdef 8fbd 7add 44bd 95d1 b43c
00000150: 4a9b ab3d cda9 f9bc 1cc4 64bd 940d 07bd
00000160: e6ec a3bd c782 1a3d 40bc a3bd 890c 903c
00000170: 650c 603d bcf1 82bd 8425 db3c 2339 67bd
00000180: d44e afbd a651 89bd 19f8 9dbd ef99 b4bc
00000190: 407c 63bd 9222 d0bc d57c a13d 8a76 46bc
000001a0: e6c6 96bd ce1d 683d 1672 353d 5ad2 c03c
000001b0: 003b 5fbd 63f3 583d cd3c 063d b70e a6bd
000001c0: 4add 013d 63dd 92bd e95a 143d acce aabc
000001d0: af92 8fbd c1f0 823c c09b 47bd 5d0f a2bd
000001e0: d258 bf3b 9c5d 97bd 1ee3 eb3c 8007 85bb
000001f0: 6447 a2bd 36d8 42bc d8b9 483b ac06 e33a
00000200: d01c 8d3d 74f4 023d 4166 1e3d e1ee 83bd
00000210: 1251 aebd a0ae 813d 5289 533d a15c 8c3d
00000220: cbb5 803d 2184 02bd 1481 e6bc ccc8 263c
00000230: d0c0 c73b c86c 44bd 81d0 aabd 1ecb a7bd
00000240: f886 193d 717f f3bc fdab 5dbc 562f d9bd
00000250: ff59 5bbd 2398 013d 84fe 983d 2db1 57bd
00000260: ce9f 183c 3acb 7f3c a6c0 eeba 49b7 72bd
00000270: 45c6 6ebd ad1f a63c d081 4c3d fb81 6abc
00000280: 66f9 3cbb 6e34 a33d 3f4f 82bc 1052 103d
00000290: f5b6 23bd 9de5 aebd 25fb 15bd d5fc 42bd
000002a0: 500c 90bd 380a 62bd ca80 873b 8eab 5c3c
000002b0: 5044 0cbd 54f1 943b a8df 7abc 9a6a a8bc
000002c0: 89fb 773d e81b b2bd 90e9 903d c20a 3ebd
000002d0: a422 cdbd c984 6ebc ff2c 873c 7da8 a2bd
000002e0: 1cf5 9bbc 4138 85bd 2af4 95bd 258c 1d3d
000002f0: 4e41 5cbd 8795 91bc 9ec4 383d 19d1 02bd
00000300: 2845 12bd 26d9 d43a c158 8b3d b111 24bd
00000310: ad8d 163c 3c9c 9039 899d 47bd 7544 b93c
00000320: f226 1a3d ceab e8bb 04ef ae3c 4f62 503d
00000330: df54 203d ac04 4bbc 3714 d7bc 44a5 78bd
00000340: 899e 9ebc 3414 8c3d a50e edbc 6c4a 453d
00000350: 955a 79bc 8637 b43d f462 eebc e7a8 c63c
00000360: 2085 553c 28c2 c4bc 293b c0bd 825d 40bc
00000370: 78c3 983d f854 7fbd 0487 9d3d a735 31bd
00000380: 246c 913c 5253 24bb b49b 30bd 0fa3 713d
00000390: d0ff 91bd 322a 643d 87a5 753d 7898 b13d
000003a0: abec 81bd 01cf 933d 3de8 8c3d a5cd 5ebd
000003b0: bc37 013d d220 74bd 32b2 6bbd 4d27 3bbc
000003c0: e76b 403d 6fc6 693c 95bb 9bbd 1f72 f3bc
000003d0: 11bb 38bc dcb0 113d 2d27 66bc 7f72 f33c
000003e0: d928 833d 99b9 45bd 0d77 f0bc 63dd a3bd
000003f0: f56b 563d c569 77bc 7643 573c 8c84 39bd
-0.085120305 0.03460044 -0.02415047 -0.039597243 -0.045859978 0.053644773 0.03756047 -0.014088381
0.010958638 -0.08311482 -0.031964276 0.03416469 0.0034025994 0.07023465 -0.018134562 -0.041053165
-0.07372717 0.009789715 0.0099610835 0.087962225 -0.024631837 -0.06723048 -0.011166588 0.062419754
-0.071845315 -0.058800254 0.035993166 -0.076365724 0.0381853 -0.07295906 -0.008195403 0.08540762
-0.065575294 -0.006856219 -0.07333601 0.084493935 0.016140979 0.059134297 0.024069283 -0.016250307
-0.0063317465 -0.057931013 -0.028393392 -0.070893064 0.007250498 -0.075964555 0.0084655145 0.082478575
0.049245268 0.088818684 -0.028402993 0.058014706 0.039060656 0.056139015 0.06650087 -0.0822737
0.016039923 -0.057025615 0.04773681 0.019551635 -0.081357025 -0.07015269 0.014457537 0.020088995
0.040288225 0.013532288 0.0067443326 -0.0066155368 -0.062080286 0.08066472 -0.01642632 0.07192765
-0.016417984 -0.07405511 0.054517686 0.068409555 0.002517707 -0.024407173 0.062004745 -0.04196161
-0.036040306 -0.0702816 -0.04806278 0.022072593 0.083792284 -0.030476475 -0.055851087 -0.032971933
-0.08004169 0.037722375 -0.0799489 0.017584102 0.05469932 -0.063937634 0.026751287 -0.056450974
-0.08559957 -0.06705026 -0.077133365 -0.022046058 -0.055538416 -0.02540711 0.07885138 -0.012113223
-0.073621556 0.05666905 0.044298254 0.023537803 -0.054499626 0.052966487 0.032772828 -0.081082754
0.03170518 -0.071711324 0.03621951 -0.020850502 -0.070103996 0.015983941 -0.04873252 -0.079130866
0.0058394456 -0.073909014 0.028794821 -0.004059732 -0.07923773 -0.011892369 0.003062835 0.0017320714
0.06890261 0.03197141 0.038671736 -0.06442047 -0.08511557 0.06332135 0.05164463 0.06853605
0.06284674 -0.03186429 -0.028137721 0.01017971 0.006095983 -0.047955304 -0.0834055 -0.081930384
0.03748223 -0.029723855 -0.013529775 -0.10604732 -0.053552624 0.03163923 0.0747042 -0.052659202
0.009315444 0.015612418 -0.0018215373 -0.059256826 -0.058294553 0.020278776 0.049928486 -0.014313216
-0.0028835176 0.079689845 -0.015906928 0.03523451 -0.039969403 -0.08539889 -0.036616463 -0.0476044
-0.070335984 -0.055185527 0.004135226 0.013468636 -0.034244835 0.00454537 -0.015312113 -0.020558644
0.060542617 -0.08696729 0.070757985 -0.04639698 -0.10016373 -0.014558026 0.016500948 -0.07942293
-0.019037776 -0.0650487 -0.07321961 0.03846373 -0.053773217 -0.017771496 0.045109384 -0.031937692
-0.035710484 0.0016239032 0.06804038 -0.040055934 0.009189052 0.00027582224 -0.04873422 0.02261565
0.037634797 -0.007100559 0.021354206 0.050875004 0.03914344 -0.012391251 -0.026254756 -0.060704485
-0.019362705 0.06839791 -0.028937647 0.048166677 -0.01521935 0.08799653 -0.029099919 0.02425046
0.013032228 -0.024018362 -0.09386284 -0.011741044 0.07459158 -0.062336892 0.07691768 -0.043264057
0.01775176 -0.0025074077 -0.04311724 0.058993395 -0.071288705 0.055704303 0.059972312 0.08671659
-0.06343969 0.07217217 0.068802334 -0.054395337 0.031547293 -0.059601612 -0.057542987 -0.011422944
0.046977904 0.014268502 -0.07604138 -0.029717503 -0.011275069 0.035569057 -0.014047426 0.029717682
0.064042754 -0.048272703 -0.029353643 -0.080012105 0.05234905 -0.015100901 0.013138643 -0.045292422

bias f4 [19]
00000000: d4fe 5c3d 8189 693d 3909 e93c 4e50 52bb
00000010: f3dc f0bc f39c 8b3c 4fe0 c6bc 9027 943c
00000020: 1d6f 51bd 4781 48ba e479 2c3d 9124 46bc
00000030: c47c f2bc 2901 bdbc 15b1 703d 65d7 94bd
00000040: c31d 103d 4885 80bd a0a2 a63d
0.05395396 0.0570159 0.02844678 -0.0032091322 -0.029402232 0.017042613 -0.02427688 0.018085271
-0.051131357 -0.00076486584 0.04210843 -0.012093679 -0.029600509 -0.023071842 0.05876263 -0.07267646
0.035184633 -0.062754214 0.08136487
