param/net_param/critic_net.pkl (torch, 28097 bytes, 5 tensors)

weight f4 [40, 115]
00000000: bca0 9f3d 3a84 8cbb be03 e3bc 29ad 90bc
00000010: 35df a9bc 8519 b73c 099c 5fbd afbd c33d
00000020: 8f0d 82bd 4460 eb38 04b8 49bc fc39 82bd
00000030: bab0 ca3c 4f98 6bbb 0ace b83d b940 a4bd
00000040: 677c 9ebd bdfd ddbc 785d aa3d fffb af3d
00000050: 74f5 d0bb 74b7 abbc 1f98 06be 6688 a7bd
00000060: 7632 47bd a31a 863c 97ec a9bd ef57 9a3d
00000070: 201b e0bc 3c6d 8e3d 3e46 203d 40b4 a53d
00000080: 8815 2c3d d1f3 ee3c 2ed0 18bd 424c 4cbd
00000090: 3dee 8fbd c089 b5bd ad7a 7ebd ba25 9b3d
000000a0: e8f8 e7bc de4b fabc 824b adbd 0ef4 173d
000000b0: ae99 303b b8b2 70bd 3c99 1abd efce 6d3c
000000c0: 860c 3c3d 1a44 453d d2fc f9bc 813d 993c
000000d0: 87b5 5fbc 734b e7bc 409f 46bd 9c5b adbd
000000e0: 6aaf 553d 15c6 003d 5eae b53d a7ae debb
000000f0: fb11 963d 56f9 16bd deb2 5ebd cba9 a53c
00000100: 2ce3 103d 5f2f 7abd 2587 f43c be64 8fbd
00000110: d688 b8bd 7ea6 ff3c aecd 71bd a5f7 193c
00000120: ccc0 653d d013 babd 04ee 0e3d bbea bd3c
00000130: 3fe5 b0ba 3e72 083d f409 413d 3018 c5bd
00000140: fa02 a33d 3004 0cbd 5541 b5bd 5cd9 a3bd
00000150: 6c0c d8bc 8d6b 963d b2a5 403d e418 a63c
00000160: dcb1 91bd 0eff e53d f00a b03d 6f48 72bd
00000170: 3a3f 4c3e 2fe2 563b 0b9c 97bd 8951 6f3d
00000180: 3010 55bd bc02 6bbd e233 9dbd 5afc 95bd
00000190: 07d9 dbbc 1bd0 983d 4cc1 c9bb e8d2 b2bd
000001a0: 1e08 01bc e754 7abd 56fc 22bd 2ac8 d13b
000001b0: 0b9e a73c 32e9 33bd 247c 2dbd 606e d4bc
000001c0: 5827 86bd 8015 a2bd e34c 083d 2f7b ad3d
000001d0: dbd0 023d 7ba4 93bb 132d e73c 54ee 99bd
000001e0: 00fc a6bd b482 79bd 823d 843c 7fde c6bc
000001f0: 3856 82bd 37b3 223d 5809 263d 0d4f e5bd
00000200: 5990 eabc fc18 793d 2a10 6d3d 267e 4d3d
00000210: 85c9 ccbd 136e 823d 406e ac3d 0ac7 0d3c
00000220: 2f5d 813c ca8b 3cbe fe5d d1bd d24d 993d
00000230: 9ded 03bd 72de 083c b0df a03d ce4b 753c
00000240: 606d 9abd e8c2 b2bd 7217 a53d 1d99 083d
00000250: a4b7 99bd e56c 4e3d 3ed6 a6bc 54ed aabd
00000260: 18df f5bc de26 72bd beb0 54bd 46d1 a83d
00000270: 1328 083b c00b b8bc f3eb 25bd 8430 f5bb
00000280: 8c75 9abc d46a b5bd fc43 98bd 5003 a63d
00000290: e390 4f3d 1f62 0a3d 249b adbc 7c65 75bc
000002a0: a210 91bd 440f b6bd 4b95 51bd 277f c4bb
000002b0: c23b e4bc 3cae edbc 3b4d 383d f512 a73a
000002c0: 1352 71bd ce7f 8a3d fd1c 193d 6850 00bd
000002d0: a20b 8a3b a406 b23d 629a 92bc 8ad1 573d
000002e0: 0582 7bbd 4d84 0cbd 4bf9 3dbd a5e1 c0bb
000002f0: 0312 5dbd 1785 123d 72cf 82bd 51bd 2a3d
00000300: 344f a6bd 1d36 533d 4411 b03d e491 88bd
00000310: c49c 84bb 5f7e 083d 264a 6c3d 4a29 73bd
00000320: 702d c0bd c46d 9ebd 76a0 a53d dca2 91bd
00000330: 5550 ac3c 6f4c 753c b109 fbbd 16f4 ed3d
00000340: 54d8 ac3d c2de aabd 8af4 88bd 26ea 9b3d
00000350: 4422 913c ced6 f73d 5dd2 75bd 472c 683d
00000360: fd77 143d 0fc5 86bd 7f0b e2bc 370f 54bc
00000370: 14bd 9cbc 9cca a03d 7932 383d 39c3 66bd
00000380: 4f7c 183d 59af adbc c12a 8bbd a1f5 bbbd
00000390: c353 fa3c 891b a1bd f792 183d 5188 6bbd
000003a0: 1738 9b3d 581a c8bd 8142 49bd 57c7 6c3d
000003b0: 42aa 39bd 30b1 a43c 9504 dcbd 15dd 11bd
000003c0: f679 08bb 6c71 3dbd b308 2dbd 24a4 a23d
000003d0: 1093 d1bd 588a 91bc d04a a03c ac12 e1bd
000003e0: ec44 00bd df3f bfbc f0f8 fe3b f25f 503c
000003f0: 3d6c 6ebd 5ec5 cdbb cbdb 8a3d bb4b 833d
0.077943295 -0.0042882236 -0.027711745 -0.017660694 -0.020736316 0.022351036 -0.054592166 0.09557664
-0.06350242 0.00011223604 -0.012311939 -0.06358716 0.024742473 -0.0035948937 0.09023674 -0.08020157
-0.077385716 -0.02709853 0.08318609 0.08592986 -0.0063769165 -0.0209615 -0.13143967 -0.08180313
-0.048632108 0.016370123 -0.08297079 0.07536303 -0.027356684 0.069544286 0.03912949 0.080910206
0.04201272 0.029168995 -0.03730791 -0.049877413 -0.07027862 -0.08864164 -0.06212871 0.07575555
-0.02831693 -0.030553754 -0.084616676 0.037097983 0.002694707 -0.05876419 -0.037743792 0.014514669
0.04591038 0.04816065 -0.030516062 0.018706085 -0.013654119 -0.02823422 -0.048491716 -0.08464739
0.05216924 0.031438906 0.088711485 -0.0067957225 0.07327648 -0.03685888 -0.0543698 0.020222565
0.035372898 -0.061080333 0.029849598 -0.07001637 -0.090104744 0.03120732 -0.059034042 0.009397422
0.05609207 -0.0908581 0.03489496 0.023183217 -0.0013496055 0.033312075 0.047128633 -0.09623754
0.07959552 -0.03418368 -0.08850352 -0.080004424 -0.02637311 0.073447324 0.04703302 0.02027554
-0.07114002 0.112302884 0.08595836 -0.05915111 0.19945994 0.0032788625 -0.0740281 0.058427367
-0.05201739 -0.057375655 -0.076759115 -0.07323523 -0.026836885 0.07461568 -0.006157076 -0.087316334
-0.00787547 -0.061116125 -0.039791428 0.0064020352 0.020461103 -0.043923564 -0.042354718 -0.025931537
-0.06550473 -0.07914257 0.03327645 0.08470761 0.03193746 -0.0045056916 0.028219735 -0.075161606
-0.08153534 -0.060915664 0.01614261 -0.024276016 -0.06364101 0.039721694 0.040536255 -0.11196718
-0.028633283 0.060814843 0.057876743 0.050169133 -0.09999374 0.06368651 0.08419466 0.008653412
0.015791504 -0.184127 -0.10223006 0.07485546 -0.032209028 0.008353816 0.07855165 0.0149716865
-0.07540393 -0.08728582 0.080611125 0.033349145 -0.0750573 0.05039682 -0.02036583 -0.08346048
-0.030013606 -0.059119098 -0.051926367 0.08243041 0.002077584 -0.02246654 -0.04050822 -0.00748259
-0.018854879 -0.088582665 -0.07434842 0.081061006 0.050675284 0.03378498 -0.02119214 -0.014977809
-0.070832506 -0.088896304 -0.051167767 -0.005996603 -0.027860526 -0.029013745 0.044995528 0.0012746739
-0.058916163 0.06762658 0.03738116 -0.03132668 0.0042128125 0.08692673 -0.017895881 0.052690066
-0.061403293 -0.03430586 -0.046380322 -0.005886274 -0.053972255 0.035771456 -0.06387223 0.041684452
-0.081205755 0.05156528 0.08597043 -0.066684514 -0.004047008 0.033323642 0.0576879 -0.05936555
-0.093836665 -0.0773578 0.08087246 -0.07111141 0.021034399 0.0149718365 -0.12257708 0.11618821
0.08439699 -0.08343269 -0.06687267 0.0761302 0.017716534 0.121015176 -0.06001507 0.05668285
0.036247242 -0.06580555 -0.027593372 -0.012943081 -0.019133128 0.07851145 0.04497001 -0.056338523
0.037227925 -0.021201776 -0.06795264 -0.09177709 0.030557519 -0.0786658 0.03724953 -0.05750305
0.07579058 -0.0977065 -0.04913569 0.057807293 -0.045328386 0.02010402 -0.107430615 -0.03561123
-0.0020824648 -0.046250746 -0.042244624 0.079414636 -0.10233128 -0.017766163 0.019566923 -0.109898895
-0.03131573 -0.023345886 0.0077811405 0.012718188 -0.058208693 -0.0062796315 0.067802034 0.06410929

bias f4 [40]
00000000: 340b 40bd bbda 9cbd 7558 2cbd 5def bd3d
00000010: 3b73 a83b 13ea 15bd 6b7c c1bd 1709 0cbd
00000020: 5c15 f6bb ed7f 0a3d 0f20 693d 803f 933c
00000030: 3984 ffba 814b f0bc cce5 a23d 9efb 483d
00000040: d7f4 80bc d4de 3f3d fc01 4c3d 95fa 24bd
00000050: 65eb a63b 0cdc 483a 41cf c53b 6212 ef3a
00000060: da24 a9bd e71e ea3c 77b7 e7bc 6460 ce3c
00000070: 7332 7c3d 3715 03bd 72b7 1ebd 626a 9abd
00000080: 646e 91bd 2c9c 6cbc 54a1 08bd 5913 a5bb
00000090: 32f4 7b3c ddaf c3ba 2d7c 75bc cc2d a2bc
-0.046885684 -0.07658907 -0.042076547 0.092741705 0.0051406897 -0.036600184 -0.09447559 -0.034188356
-0.0075098705 0.033813406 0.05691534 0.017974615 -0.0019494361 -0.029332878 0.079539865 0.049068086
-0.015741749 0.046843365 0.04980658 -0.040278036 0.005093979 0.0007662184 0.0060366695 0.0018239731
-0.08258982 0.028579189 -0.028285725 0.025192447 0.06157155 -0.032002654 -0.038749166 -0.07539822
-0.071011335 -0.014441531 -0.03335698 -0.005037707 0.015378045 -0.0014929731 -0.014983219 -0.019797228

weight f4 [40, 40]
00000000: 7099 483c f5f7 cfbd 47ba 593d d10d d53d
00000010: ca21 1a3e 2008 2bbc e9a3 f33d ac63 a73c
00000020: e2ef c23b 7d16 eebd 1f66 fa3d 4e9a ab3d
00000030: be56 70bd 1653 a5bd 6633 28be ee0f 023d
00000040: 0b7f 123e 5a07 2bbd f07a 07be 1a16 213e
00000050: 43a5 0d3c 365b 8abd e698 dd3d 0256 1d3c
00000060: b1d3 8fbd 5614 b9bd 90ef 09be 5534 e1bd
00000070: 0881 113e 2675 12be cf4d 0a3c da48 183e
00000080: 1794 cfbb 493d fdbd d9ff 1a3e d4ed 953c
00000090: cd0c 30bd fb85 c13c edb5 babd 3c39 6ebd
000000a0: 91c9 813d e3e8 89bc ba43 1d3e e6e6 01bd
000000b0: f859 f3bd d4bd 5cbc 51d4 763d eca2 21bd
000000c0: b999 e0bd e52b d23d 7bd8 b73d 208b 803c
000000d0: e1ca f6bc 4675 b7bd ec02 df3d 2540 d63d
000000e0: 3e03 123e d3f5 e5bb 7346 e03b d52c 993d
000000f0: 2ccf f13c 6a6c b4bb 9efb ac3d 8e54 a5bc
00000100: 8623 96bd d4a0 d93d 9a08 fa3d 3e13 25be
00000110: d488 4fbd 8425 2f3c 532d 11be c8bd 373d
00000120: 24b2 14be 7665 023e debf bfbd 9dfe b33d
00000130: af9f 023e 01ad 5cbd bcd6 dcbc e923 f9bd
00000140: e522 1e3e 5074 873b 842b 223e 49f4 57bd
00000150: 04fe 82bd a67b f4bd ad26 153e d439 083e
00000160: f66c a5bd 9a0f 653d 8fce 8fbd 4dc8 7dbd
00000170: 3e8d 0d3d e648 1dbe 2b6e 9fbd 53f9 8e3d
00000180: 087f 093e d822 8e3d 2f13 b0bd b68d 913d
00000190: 0cc0 903d dfd7 14bd 1f20 debd 4f91 50bd
000001a0: fcb1 63bd 7cb0 e2bd 09ff e1bd 6caa a6bd
000001b0: 5d18 0d3d a150 d43d a0ba fe3d f779 103e
000001c0: 7d3b e13d ec61 913b 6d57 b03b a098 62bd
000001d0: b539 80bb 1841 e4bd 9750 853d 103c f33d
000001e0: d6e7 a53d 9e62 e53d 7ec0 133d ece2 05be
000001f0: e000 c5bc 8da9 b33d 5619 18bd 4213 61bd
00000200: 189c 123e 78ab 9d3d a3a1 cc3d 1d68 51bd
00000210: b79e 823c f359 823d e628 d7bd 1db1 a33d
00000220: 71e1 b6bd 73c2 d13c c076 0d3e 1605 04be
00000230: c372 a5bd d06d fd3d 08b9 a5bd cd08 f93b
00000240: eddc 01be f2ae 9abd 216f d7bd b6db 493d
00000250: 2f78 bdbd 7b33 143e feb5 0c3e 6358 223e
00000260: 49cb 34bd 0d21 f13d 98e1 ac3d 6e5d 98bb
00000270: fb63 5abd fcb2 503d 00c9 cd3d 1c0f 07be
00000280: 639a 993d 15ac b6bd 722a 073d 22e5 0e3e
00000290: d4c6 b43c 47cd 65bd cbe7 b9bd 8bc3 60bd
000002a0: 28bf 1d3e 41b6 79bd 8640 dfbd b49f c83d
000002b0: d51b 033e 6854 153e 7084 a13c 863f e33d
000002c0: 917d cfbd 78f4 18be ebc1 39bd 4d05 c03c
000002d0: 9a9f 2bbd ca36 983c 24e0 b83d f7d4 99bd
000002e0: c9fb c5bd 65e9 9cbd 1653 9fbd 594a 9dbd
000002f0: 0fa6 4bbd 40b1 993d 0a82 953d 9f81 013e
00000300: e878 ae3d 975f 9f3d d1e7 e73b 18d6 a7bd
00000310: 30e8 923d d824 d23d 085a 8f3d 6c02 d0bd
00000320: 4be5 92bc 90a9 c5bd 9198 21be 4cb2 9b3c
00000330: d0bd b7bc a7f9 293c 8f97 f93c 2038 f73d
00000340: 2c2c 163e c2b6 b73d df55 bdbd 7f3f 1a3e
00000350: cf90 0dbc ce2d 993d 8c6f 9f3d 8098 1bbe
00000360: 178b e1bd 1319 04be bad2 94bd 630b 0abe
00000370: c84c 473d eb43 b93d 144d 1abe 06f4 203d
00000380: 4153 dcbc bf9b adbd 260e 0b3e e8b3 0abe
00000390: 8292 0a3e fa74 d33d 0ca1 033e 500d 13be
000003a0: 476d de3c fb71 db3d 9051 bdbd 062d f8bd
000003b0: 4fcb eabb 4d25 af3a 01cb 903d a494 19be
000003c0: 3174 0ebd 1c05 ec3a 5a84 18be 0426 89bd
000003d0: f99a 1fbd 0240 9b3d 1bb7 9a3b 86f0 cf3d
000003e0: b2e0 44bc e087 b53d 0c3e d9bd bdb0 ec3d
000003f0: 101b e03d fe28 0bbd c7a6 923d 6fe4 aa3d
0.012243614 -0.10154716 0.053156164 0.10403026 0.15051952 -0.010438949 0.11896498 0.02043327
0.0059490064 -0.11625383 0.12226509 0.08379041 -0.058676474 -0.08072488 -0.16425857 0.031753473
0.14306276 -0.041755058 -0.1323049 0.15731087 0.0086453585 -0.06755678 0.10820179 0.009603025
-0.07022799 -0.09037082 -0.13470292 -0.1099631 0.14209378 -0.14302501 0.008441403 0.1487154
-0.0063347924 -0.12365205 0.1513666 0.018301882 -0.042980958 0.023623457 -0.09116731 -0.05816005
0.06337274 -0.016834682 0.15357867 -0.031714343 -0.118823946 -0.013472993 0.060261074 -0.039462015
-0.1096682 0.102622785 0.08976837 0.01569134 -0.030126037 -0.08957915 0.10889229 0.10461453
0.1425905 -0.00701783 0.0068443357 0.07479254 0.029517733 -0.005506088 0.0844643 -0.02018192
-0.07330994 0.10626379 0.12208672 -0.16120622 -0.0506676 0.010690097 -0.14177446 0.044858724
-0.1452108 0.12734017 -0.09362768 0.08788798 0.12756227 -0.053875927 -0.026957862 -0.121650524
0.15442999 0.0041337386 0.15836912 -0.052723203 -0.06396106 -0.119376466 0.14565535 0.1330331
-0.08077423 0.055923082 -0.0702182 -0.0619586 0.034558527 -0.1535984 -0.07784685 0.069811486
0.13427365 0.0694024 -0.08597409 0.07107107 0.0706788 -0.036338683 -0.1084597 -0.050919827
-0.05558966 -0.11068818 -0.11034972 -0.08137974 0.034447063 0.10366941 0.1243794 0.14109026
0.109976746 0.004436722 0.0053815157 -0.055321336 -0.003913129 -0.11145228 0.06509512 0.118766904
0.0810086 0.1120045 0.036072247 -0.13074845 -0.024048269 0.087725736 -0.037133537 -0.054950006
0.14317358 0.07698721 0.09991767 -0.05112468 0.015944822 0.06364813 -0.10505848 0.07992766
-0.08929718 0.025605416 0.13814831 -0.12892565 -0.0807853 0.12374461 -0.080919325 0.007599926
-0.12681933 -0.075528994 -0.10519243 0.0492818 -0.09251439 0.14472763 0.137413 0.1585403
-0.04413918 0.11773882 0.08441466 -0.0046498096 -0.053318005 0.050951943 0.10048103 -0.13189358
0.0750015 -0.08919541 0.032999463 0.13954595 0.022067465 -0.05610397 -0.09077414 -0.054873984
0.15404952 -0.060964826 -0.10900979 0.09796086 0.12803586 0.1458298 0.019716471 0.110961005
-0.10131372 -0.14937007 -0.04535095 0.023440028 -0.041900255 0.018580813 0.090271264 -0.07511323
-0.09667165 -0.07661704 -0.07779519 -0.07680196 -0.049718913 0.07504511 0.073001936 0.12647103
0.08519155 0.07781904 0.007077195 -0.08195132 0.071731925 0.10260934 0.06999594 -0.10156712
-0.017931601 -0.09651482 -0.15780856 0.019005917 -0.022429377 0.010374463 0.030467777 0.12071252
0.14665288 0.08970405 -0.09244894 0.15063284 -0.008640482 0.0747944 0.07784948 -0.15194893
-0.110128574 -0.1290019 -0.072667554 -0.13480906 0.04865721 0.090461574 -0.15068465 0.03929522
-0.026895167 -0.08476972 0.13579616 -0.13545191 0.13532451 0.10325046 0.12854403 -0.14360547
0.027151717 0.107150994 -0.092440724 -0.121179625 -0.0071653496 0.0013362557 0.0706997 -0.14998108
-0.034778778 0.0018006894 -0.14894238 -0.06696704 -0.038966153 0.07580568 0.004721535 0.10153298
-0.012016462 0.08863807 -0.106075376 0.11557148 0.10942662 -0.03397464 0.071607165 0.083443515

bias f4 [40]
00000000: 3506 303d 0dc6 01be 7fff f23d 160d a73c
00000010: f72c c23c 8661 763b 3a4c 5abc b7ac ba3d
00000020: 0305 bf3d e83a dcbd 39f8 1d3e b771 36bd
00000030: 30c7 e93d 3c26 ac3d e20b 8fbd d12e c23d
00000040: f929 283d e415 23bc b4c3 86bd 6228 07be
00000050: 8af0 c7bc d3a1 1a3e d725 3838 48cd dfbd
00000060: 6f9f b53b cbfb 0bbe ad2d a838 9db9 7abd
00000070: e54e 8a3d d434 233d 9b98 82bd d387 d2bd
00000080: f904 233c ff5e 07be 9302 03bd 5379 fdbd
00000090: 443f 0a3d 81ee 1b3e 5c18 22be c866 8cbd
0.04297467 -0.12673207 0.11865138 0.020391982 0.023703082 0.003759475 -0.013323838 0.09114974
0.09327128 -0.10753423 0.1542672 -0.04454204 0.11414945 0.0840573 -0.06984688 0.09481586
0.041055653 -0.00995395 -0.06580296 -0.13198999 -0.02440669 0.15100794 4.390426e-05 -0.10927826
0.0055426876 -0.1367027 8.019372e-05 -0.06121217 0.06753329 0.039845303 -0.063767634 -0.10279813
0.009949916 -0.13219832 -0.031984877 -0.123766564 0.03375174 0.15227701 -0.15829605 -0.068555415

weight f4 [1, 40]
00000000: 51f2 40be 0aeb 243d 041b a53d 740c 84bc
00000010: cd8f 253e a6c0 2fbc cc98 f43c 4744 d4bd
00000020: 9b82 ad3d e97e 1fbd 62dc bdbd 7de8 963d
00000030: 428c e73d 26f3 b53d 6697 183d 0c16 f4bd
00000040: 48e0 b33d 662c 8c3d 116f adbd cf70 03be
00000050: 91a6 c4bc 1fda dfbd 13ba bb3c 01c8 a43d
00000060: cf0e ee3c 1da4 f73d 7533 02be fe04 5a3d
00000070: b786 2abd bde8 f73c 5ee4 e8bd 11a0 143e
00000080: b4bf 4f3c d885 f5bd 0ba8 f13d b002 d13d
00000090: 5315 91bd 3905 edbd b047 0c3e 585f e2bd
-0.18842436 0.040263213 0.080617934 -0.01611922 0.16168137 -0.010727083 0.029858015 -0.10364585
0.08472177 -0.03893939 -0.0927055 0.07368562 0.11306049 0.088842675 0.03725376 -0.119182676
0.08783013 0.06844406 -0.0846845 -0.12836002 -0.024005206 -0.10930275 0.022915876 0.0804596
0.029059796 0.12091849 -0.12714942 0.053227417 -0.04163238 0.030262345 -0.113716826 0.14514185
0.012679983 -0.11988419 0.1179963 0.10205591 -0.070841454 -0.11573262 0.13699222 -0.110533416
